…
 'target_columns': None,
 'target_weights': None,
 'task_names': ['peakwavs_max'],
 'test': False,
 'test_fold_index': None,
 'train_data_size': None,
 'undirected': False,
 'use_input_features': False,
 'val_fold_index': None,
 'warmup_epochs': 3}
Loading data
Number of tasks = 1
Fold 0
Splitting data with seed 0
Total size = 13,242 | train size = 13,242 | val size = 1,633 | test size = 1,710
Fitting scaler
Building model 0
MoleculeModel(
  (encoder): MPN(
    (encoder): ModuleList(
      (0): MPNEncoder(
        (dropout_layer): Dropout(p=0.2019040321424448, inplace=False)
        (act_func): ReLU()
        (W_i): Linear(in_features=147, out_features=1977, bias=False)
        (W_h): Linear(in_features=1977, out_features=1977, bias=False)
        (W_o): Linear(in_features=2110, out_features=1977, bias=True)
      )
      (1): MPNEncoder(
        (dropout_layer): Dropout(p=0.2019040321424448, inplace=False)
        (act_func): ReLU()
        (W_i): Linear(in_features=147, out_features=1977, bias=False)
        (W_h): Linear(in_features=1977, out_features=1977, bias=False)
        (W_o): Linear(in_features=2110, out_features=1977, bias=True)
      )
    )
  )
  (ffn): Sequential(
    (0): Dropout(p=0.2019040321424448, inplace=False)
    (1): Linear(in_features=3954, out_features=1503, bias=True)
    (2): ReLU()
    (3): Dropout(p=0.2019040321424448, inplace=False)
    (4): Linear(in_features=1503, out_features=1, bias=True)
  )
)
Number of parameters = 22,695,013
Moving model to cuda
Epoch 0
Loss = 1.3146e+00, PNorm = 103.7648, GNorm = 9.8896, lr_0 = 2.7695e-05
Loss = 9.4686e-01, PNorm = 103.7657, GNorm = 3.5142, lr_0 = 4.0642e-05
Loss = 8.7551e-01, PNorm = 103.7673, GNorm = 14.0798, lr_0 = 5.3589e-05
Loss = 9.5202e-01, PNorm = 103.7696, GNorm = 10.8593, lr_0 = 6.6535e-05
Loss = 1.0254e+00, PNorm = 103.7728, GNorm = 10.9322, lr_0 = 7.9482e-05
…
 'target_columns': None,
 'target_weights': None,
 'task_names': ['peakwavs_max'],
 'test': False,
 'test_fold_index': None,
 'train_data_size': None,
 'undirected': False,
 'use_input_features': False,
 'val_fold_index': None,
 'warmup_epochs': 2}
Loading data
Number of tasks = 1
Fold 0
Splitting data with seed 0
Total size = 13,242 | train size = 13,242 | val size = 1,633 | test size = 1,710
Fitting scaler
Building model 0
MoleculeModel(
  (encoder): MPN(
    (encoder): ModuleList(
      (0): MPNEncoder(
        (dropout_layer): Dropout(p=0.2137085884151871, inplace=False)
        (act_func): ReLU()
        (W_i): Linear(in_features=147, out_features=695, bias=False)
        (W_h): Linear(in_features=695, out_features=695, bias=False)
        (W_o): Linear(in_features=828, out_features=695, bias=True)
      )
      (1): MPNEncoder(
        (dropout_layer): Dropout(p=0.2137085884151871, inplace=False)
        (act_func): ReLU()
        (W_i): Linear(in_features=147, out_features=695, bias=False)
        (W_h): Linear(in_features=695, out_features=695, bias=False)
        (W_o): Linear(in_features=828, out_features=695, bias=True)
      )
    )
  )
  (ffn): Sequential(
    (0): Dropout(p=0.2137085884151871, inplace=False)
    (1): Linear(in_features=1390, out_features=739, bias=True)
    (2): ReLU()
    (3): Dropout(p=0.2137085884151871, inplace=False)
    (4): Linear(in_features=739, out_features=1, bias=True)
  )
)
Number of parameters = 3,352,769
Moving model to cuda
Epoch 0
Loss = 1.3908e+00, PNorm = 65.9827, GNorm = 3.6397, lr_0 = 2.3501e-05
Loss = 1.0689e+00, PNorm = 65.9824, GNorm = 5.9712, lr_0 = 4.3887e-05
Loss = 9.7371e-01, PNorm = 65.9826, GNorm = 7.4612, lr_0 = 6.4273e-05
Loss = 9.6876e-01, PNorm = 65.9835, GNorm = 2.8770, lr_0 = 8.4659e-05
Loss = 1.1134e+00, PNorm = 65.9860, GNorm = 10.0991, lr_0 = 1.0505e-04
…
